tutorials/lava/lib/dl/netx/oxford/Trained/network.pt (torch, 412163 bytes, 2 tensors)

blocks.0.synapse.weight f4 [256, 200, 1, 1, 1]
00000000: 939e d3bf 232b 8fbf 3b7a e3bf fc0f dbbe
00000010: db21 21bf 3c8a 263f 6ae1 073e 8337 7cbe
00000020: 9e77 78be da45 5cbf 5b9a 39bf eb66 95bf
00000030: 2dc6 be3e 61c0 ccbe 3ac6 89bf 96be 21be
00000040: e3b6 7bbe 5997 56be a130 8dbf b176 26bf
00000050: 45f4 42bf 8e07 b6bf d421 61be e63a 88bf
00000060: f8be 8ebf 439b 053e bece dc3e a73b 9a3c
00000070: d24d 69bf 4948 04bf 909b f3be 028d 5dbf
00000080: 4d1f 2fbf 2512 40bf 11c7 6fbf 5bd6 ebbd
00000090: 1f34 8bbf 76bb ecbf 7362 b7bf 3816 4bbf
000000a0: 49fe bd3f 30a9 80bf 16d0 8bbf a266 efbd
000000b0: cc91 cabf 98f6 4bbf a0fc 50bf 511d 28bf
000000c0: 2ae2 acbf 6772 bebf 31e7 bd3f c1bf d5bf
000000d0: 2b80 f8bd 44a3 82bf 30cb 3bbf 1cf0 10bf
000000e0: 0626 0cbf 8ec7 45be 9634 8dbf fa29 8dbd
000000f0: 5a18 96bf 92fb a0bf 6a79 c03d 459b 1dbf
00000100: 5732 5abf 5fcf babf 32f1 9bbe 7a65 a2bf
00000110: 5156 6abf 994b 45be e31a 7dbf 3b53 89be
00000120: e664 6dbf fd65 01bf 4158 1a3f 2bc8 1c3c
00000130: 2d6c 1f3f 3262 c7bf dec9 58bf 6c0b 94bf
00000140: 0d20 36bf b477 d6bd 1bb5 44bf a624 a83f
00000150: 4e4b 3ebf c807 2cbf bd70 90bf 86e4 4bbf
00000160: c09d 7e3d 1443 ddbf cd1c 14c0 7e78 7b3e
00000170: d727 c3bc e808 063e 53d9 d2bf 7081 acbf
00000180: 0b73 b6be 0146 99be 6bc0 f5bf 4c63 27bf
00000190: c321 4cbf 767c e4bf 81ab e4bf af92 81bf
000001a0: 2ef9 8d3f 3af2 65bf 8613 0fbf db7d 183f
000001b0: 4ad4 c9bf baa8 7e3d c404 53bf f974 993e
000001c0: 006f f4bf 0d35 90bf 6dd9 a3be 7121 07bf
000001d0: 27f0 0540 6b90 e2be f5fd 20bf c56f 5abf
000001e0: 8ff1 2abf bbe1 f1be 178f bd3c cd0b 68bf
000001f0: 4854 a63e 230e 213f d8d9 fabd c015 e5bf
00000200: 668b d2bf 2278 42bf 9cd9 c1bf 274b e8bc
00000210: 85de f53d 0966 be3b 4d02 273f 0b0e 3dbd
00000220: b6be fbbf 00a7 00bf 2a57 a1bf 28dc 9ebf
00000230: e3d9 b5bf cf65 3f3f fbcd b9bf 7ac1 46bf
00000240: dd28 88bf 106f f4be 8b5d 76bf 1181 44bf
00000250: 1c4a 77bf 8636 433e 9a45 b1be ce27 7ebf
00000260: 8351 01c0 5abe ec3e fb57 983e bdc1 55bf
00000270: 0141 39be 2a4f 2dc0 7f80 ccbf fc60 9bbf
00000280: a6f0 9cbf daef d3bf 95df 14bf af56 68bf
00000290: e017 44bf 6226 53bf b898 84bf 2839 4abf
000002a0: 542a babf 14d7 1fbf 4344 703f 1402 b1bf
000002b0: 172f 91bf 2a31 31bf 9d4a f0bf 32a2 80bf
000002c0: f3a0 233f 4fcf a4be cbef 53bf eac5 f5bc
000002d0: 3eb2 b3bb 62dd f5bf 5e28 71bf 4e58 1bbf
000002e0: 1e91 10bf c068 64bf 6847 60bf 93f2 f4be
000002f0: 250b 94bf 9e46 0b3e 7445 033f 24f5 98bf
00000300: 8f2a a13e 3993 16bf 0e60 04c0 554a 66be
00000310: dab0 b4bf 4bd7 2abf 6727 42be 9fff 8e3e
00000320: 3291 a2bf 2905 03bf 7aff 81be 9d25 3bbf
00000330: 7f1d adbe 0375 75bf 589a 7f3f 44b4 05bf
00000340: 10b2 acbf 1290 44bf 5808 93bf 519d 73be
00000350: 7f3f bdbe e4ce 703e 56fd 87bf 6f25 9cbe
00000360: b5cc 2cbf d437 98bf c34f 70bf 48a0 9fbe
00000370: 3153 d5bf 0af5 03c0 cbbd e83e 49e2 8dbf
00000380: c020 95bf cd20 07bf b788 a0bf 39d6 23bf
00000390: e5f8 a13e 862b 05bf 7bbd adbf 0523 e8bf
000003a0: 629d 5dbe f7c5 4fbe 6c1a a7bd 1114 a5bd
000003b0: 7812 44bf 385f aebf b18a 9dbf 271c 49be
000003c0: e618 a93d 6d25 b1be 4d04 b2bf 80e6 c1bf
000003d0: 4a71 4bbf 8106 12bf 4edc a7bf 1ed4 0bbf
000003e0: 8410 4f3e febd b6be 9f7a 96bf 36c5 693e
000003f0: 9c02 91be 1c1f aabf 2464 efbe ad61 c3bf
-1.6532768 -1.1185039 -1.7771677 -0.42785633 -0.62942284 0.6505468 0.13269582 -0.24630551
-0.2426438 -0.86044085 -0.7250115 -1.1672033 0.3726057 -0.39990523 -1.0763619 -0.15795359
-0.24581484 -0.20956172 -1.1030465 -0.6502486 -0.76153976 -1.4221056 -0.2198556 -1.0642974
-1.1152029 0.13047509 0.43126482 0.018827273 -0.9113437 -0.516728 -0.47579622 -0.86543286
-0.68407136 -0.75027686 -0.93663126 -0.115154944 -1.0875281 -1.8494709 -1.4326919 -0.7933078
1.4843227 -1.0051632 -1.0922878 -0.116894975 -1.5825744 -0.7967315 -0.81635475 -0.65669733
-1.350652 -1.4878663 1.4836179 -1.6699144 -0.12133821 -1.0206075 -0.73356915 -0.5661638
-0.5474552 -0.19314405 -1.1031673 -0.06892772 -1.1726182 -1.2576773 0.09398158 -0.6156505
-0.8523306 -1.4594535 -0.30457455 -1.2687218 -0.9153796 -0.1926712 -0.9886915 -0.26821312
-0.92732084 -0.50546247 0.60290915 0.009569208 0.6227444 -1.5576842 -0.84683025 -1.1565986
-0.71142656 -0.1047205 -0.76838845 1.3136184 -0.74333656 -0.67199373 -1.1284405 -0.79645574
0.06216216 -1.7286096 -2.3142579 0.24557683 -0.023822708 0.13089335 -1.6472572 -1.3477001
-0.35634646 -0.2993622 -1.9199346 -0.6538589 -0.79739016 -1.7850482 -1.7864839 -1.0122889
1.1091669 -0.89822733 -0.55889165 0.5956704 -1.576791 0.06217263 -0.82429147 0.29972056
-1.9096375 -1.126619 -0.3200182 -0.527854 2.0927827 -0.44250807 -0.6288751 -0.85326797
-0.6677484 -0.4724253 0.02313952 -0.90643007 0.32486176 0.62912196 -0.12248582 -1.7897263
-1.6448791 -0.7596456 -1.5144534 -0.028356148 0.12005333 0.0058105034 0.65237886 -0.04615597
-1.9667575 -0.5025482 -1.2604725 -1.2410936 -1.4207119 0.7476472 -1.4515985 -0.7763897
-1.063747 -0.47740984 -0.96236485 -0.7675944 -0.96597457 0.19063768 -0.34623414 -0.9927949
-2.0206 0.46238977 0.29754624 -0.83498746 -0.18091203 -2.7079568 -1.5976714 -1.2138972
-1.226094 -1.6557572 -0.5815366 -0.9075727 -0.7659893 -0.8248044 -1.0359106 -0.78993464
-1.4544168 -0.6243756 0.9385416 -1.3828759 -1.1342496 -0.69215643 -1.877277 -1.0049498
0.63917464 -0.32189414 -0.8278777 -0.0300016 -0.0054838946 -1.9208186 -0.9420222 -0.6068162
-0.5647143 -0.89222336 -0.8760896 -0.4784132 -1.1565901 0.13601157 0.5127785 -1.1949811
0.31477782 -0.58818394 -2.0683627 -0.22489293 -1.4116471 -0.6673476 -0.18960343 0.27929398
-1.270056 -0.5117975 -0.25390226 -0.7310427 -0.33811566 -0.9588167 0.99844885 -0.5222819
-1.349184 -0.76782334 -1.1486921 -0.2379048 -0.36962506 0.23516423 -1.0624187 -0.3049731
-0.6749986 -1.1892037 -0.93871707 -0.31176972 -1.6666013 -2.061831 0.454573 -1.1084682
-1.165062 -0.52784425 -1.2541722 -0.6399875 0.31635204 -0.52019536 -1.357345 -1.8135687
-0.21642068 -0.20290361 -0.081593364 -0.08060468 -0.7659068 -1.3622808 -1.230795 -0.19639646
0.08256702 -0.34598866 -1.3907562 -1.5148468 -0.7946974 -0.57041174 -1.3114107 -0.5462054
0.20221144 -0.35691828 -1.1756171 0.22829136 -0.28322303 -1.3290744 -0.4675609 -1.5264183

blocks.1.synapse.weight f4 [200, 256, 1, 1, 1]
00000000: 7400 adbc a700 1f3c 44a0 b1be e19d 8dbc
00000010: a126 c1bd 1f88 6cbc b509 68bc abd9 1c3d
00000020: 74d3 9e3d f1f4 91bd 309c 733c 3a48 123c
00000030: b019 433d d1a8 883c bbe3 b53c dd3d c23c
00000040: dbb0 f1be 256c e53d f832 483c 6c94 14bd
00000050: bce8 b43c 5e6e a43c 4d7e a33b 7cac 33bd
00000060: 3089 983d 863b 7c3c baf0 5c3c 3f47 e0bc
00000070: 707b b1bc 2f5b 28bc 8714 0fbd 3f6d 54bd
00000080: 777e 2abe 0407 6f3c 8907 7cbc 4462 11bd
00000090: cf8e 5abb 81f8 3e3d 4819 a0be 08ac 463d
000000a0: d35e 03be 4daa 5fbd 4f70 8a3c d5db 693c
000000b0: b4f1 11bc c37c 11bc 4338 11bf 398f eabd
000000c0: 4297 a9be f43f 98bd bb24 88bc 3b0e 9bbd
000000d0: 53da 9bbc 36af 2cbf 92e5 e33d b925 813c
000000e0: c078 693c 8d3f 8c3c c344 bdbc 05f1 593b
000000f0: c79d 59bb f4a7 973b 63d9 65bc 40a1 7d3c
00000100: 4590 52bd 0736 773c c636 723c b753 69be
00000110: 6c52 f33c 8d1d 693c 2296 593c 79a9 7b3c
00000120: 34fa 18be 2c72 39bc b9e8 9f3d 29a6 09bd
00000130: a25e ac3c 6abe 623c 71bf 803c 7181 783c
00000140: f4e3 0bbb 43ac 8d3c 1f48 583c 7128 33bd
00000150: 8bae 3ebd 7191 493d 25c9 79be 6d5f 12bb
00000160: c61e babb b4ff afbc d862 cabc ba98 7dbc
00000170: f652 ad3d c07f 4239 8182 e4bd 5eaa c63e
00000180: 5e26 98bc 3a6f 3ebc a0c4 5f3d fceb 493d
00000190: 9623 9cbc bef9 d23d 229a 1bbc f3fe 3a3d
000001a0: a02f 9b3c a5bd 96bb 4bdf a73c 527d 39bd
000001b0: 1e72 853c 84a2 a2bd e479 0ebe b29a 173c
000001c0: 1af3 b1bc 1f8a 15bd 95fc 433e adb3 bbbd
000001d0: 6f82 7c3c 7094 493b 033f 043c c56d 973c
000001e0: eddb 3fbd fcf5 1a3c d75e d33b 5681 af3c
000001f0: 5114 0ebd 4e12 b0bb 72b6 023b 7eb8 833c
00000200: a7b0 9f3d a6e4 59bc 22e5 dbbc 6205 ab3d
00000210: 3e96 e3bd d5f2 613c 0553 a3bd 25da ab3b
00000220: a166 3d3d 10a2 823c 1744 963b 67e8 87bc
00000230: 3e6d ddb9 558e 493d 588f 6ebc 5dd3 1f3d
00000240: bd7e 58bd d0e1 7dbc f5a5 3bbd 0d3a b33a
00000250: 70c7 b7bb 505f a3be 229d 783c c948 3dbc
00000260: 096e a73d ebee 4c3d e47e e7bd eed3 9f3b
00000270: bdd9 67bc ffd2 513d 0efc 90b9 ed7f 78bd
00000280: 2f45 febc 6f60 823c 5fdf 8c3c 8514 403e
00000290: c35b 82bc e1c9 793c 38d8 91bc bfaf 903d
000002a0: 5684 acbd 5f5e 5abd d4cb 7f3c 36a0 4a3d
000002b0: 2f1e 553d abe6 3b3d cce8 2bbd c4cd deba
000002c0: 6cae 8c3c c33d 113e 1920 683c 1330 25be
000002d0: 3ca5 5e3a 3620 053e e553 bb3c 8222 0abf
000002e0: ac7b 803c 39dd bcbd a3da 923c ff61 93bc
000002f0: ed02 98be 4b48 95bb 29c0 9bbd 7ff3 0cbd
00000300: cc25 8a3c e2f4 a63d 3069 fb3c 417d 803d
00000310: 5400 8c3d 84bd 52be cca5 2fbf 1a1c 723d
00000320: 8493 cabe c914 613b 627b 1d3d 9df4 713e
00000330: 234f 583d fcbb 6c3c ca75 b6bc 6ec1 473c
00000340: 5494 103d b8a5 20bc ac6c 2c3c f1c9 acbd
00000350: d2e5 053e 0b25 22be 5a1e 6f3c 2009 6cbc
00000360: 9257 8c3c e638 59ba 61f3 fe3d 538b b9bb
00000370: 06c6 41be fa7c b8bd d140 6b3d 59f1 603c
00000380: bd99 423d cf14 cbbc fa29 8dbb 7dd8 37be
00000390: 0a36 bc3b 5d68 323c 1b26 d6bc 9e6c 2f3d
000003a0: f788 473d f49d 753c bfa9 a3bc 9dbe 573c
000003b0: a56b 873c 97e5 3cbd 3def 543d 417e 2fbd
000003c0: def3 27bd 3952 9ebc cce1 d33c b46e 4ebc
000003d0: fcef a13c fb64 11be bc87 7d3c d5c1 82bb
000003e0: edb8 2e3d e0b7 aa3c ea6f d53d ae34 97bc
000003f0: 2f21 b1bc 961b dcbd 97d3 583d 6044 cf3b
-0.02111838 0.009704745 -0.34692585 -0.017287197 -0.09431196 -0.014436751 -0.014162471 0.03829352
0.07755175 -0.07126797 0.014868781 0.008928353 0.04763192 0.01668206 0.022203317 0.02371114
-0.47205243 0.112022676 0.012219183 -0.03627436 0.022083633 0.020072158 0.0049894215 -0.043865666
0.074480414 0.015395051 0.013485128 -0.027377723 -0.021665305 -0.010275646 -0.034931686 -0.051861998
-0.16649805 0.014589075 -0.015382656 -0.035494104 -0.003334928 0.04662371 -0.31269288 0.048503906
-0.12829141 -0.05460577 0.016899256 0.014273603 -0.008907724 -0.008879843 -0.56726474 -0.11453099
-0.33123213 -0.07434073 -0.016619077 -0.075710736 -0.019025004 -0.6745485 0.111277714 0.015765058
0.01424998 0.017120147 -0.023104077 0.003325523 -0.0033205615 0.004628176 -0.01402888 0.0154803395
-0.051407117 0.015088565 0.014783567 -0.22785841 0.029702388 0.014228237 0.013280423 0.01536023
-0.14939195 -0.011318725 0.0780806 -0.03360573 0.021041218 0.013839344 0.015716286 0.01516758
-0.0021345587 0.017294055 0.013200789 -0.04373974 -0.046553176 0.04921097 -0.24393137 -0.002233471
-0.005679938 -0.021484233 -0.024705335 -0.015478307 0.08463089 0.00018548872 -0.11157704 0.38801855
-0.018572982 -0.011623198 0.054630876 0.049297318 -0.019059937 0.10301541 -0.009497197 0.045653295
0.018943608 -0.004600244 0.020492217 -0.04528553 0.016289767 -0.07941154 -0.13913685 0.009253191
-0.021722365 -0.036508676 0.19139321 -0.0916513 0.015411957 0.0030758642 0.008071664 0.01848496
-0.046840597 0.009458061 0.006450515 0.021423977 -0.034687344 -0.005373276 0.0019945172 0.016079184
0.07797366 -0.013299143 -0.026842657 0.08350636 -0.11112641 0.013790806 -0.07974819 0.0052445107
0.046240453 0.015946418 0.0045857537 -0.01659031 -0.00042233797 0.049208004 -0.014560543 0.03901993
-0.052855242 -0.015495732 -0.045812566 0.0013673917 -0.0056084916 -0.31908655 0.015174182 -0.011552998
0.081752844 0.050032537 -0.11303499 0.004877559 -0.014151034 0.051226612 -0.00027653616 -0.060668875
-0.031038849 0.015915124 0.017196355 0.18757828 -0.015912896 0.015245886 -0.017803296 0.07064771
-0.084236786 -0.053312656 0.015612561 0.049469195 0.05203074 0.04587428 -0.04197006 -0.0016998579
0.017173015 0.14183716 0.014167809 -0.1613162 0.000849325 0.13000569 0.022867152 -0.53958905
0.015683971 -0.092218824 0.01792652 -0.017991064 -0.29689732 -0.004555737 -0.07605011 -0.034411903
0.016863726 0.081521764 0.030689806 0.0627389 0.06836 -0.20580107 -0.6861236 0.05910883
-0.3956567 0.0034344664 0.038447745 0.23628469 0.052809846 0.014449116 -0.022272963 0.012192113
0.035297707 -0.009805135 0.010523956 -0.08436955 0.1307595 -0.15834443 0.014594639 -0.014406472
0.0171316 -0.00082863716 0.124487646 -0.0056623607 -0.18923196 -0.090082124 0.05743486 0.013729417
0.047509898 -0.024790196 -0.0043079825 -0.17953677 0.0057437466 0.01088914 -0.026141217 0.042828195
0.048714604 0.014991272 -0.019978402 0.013168004 0.016530821 -0.04611739 0.051985968 -0.042845014
-0.041004054 -0.019326316 0.025864504 -0.012599636 0.019767754 -0.14198677 0.015474256 -0.0039903917
0.042656828 0.020839632 0.104217365 -0.018457737 -0.021622268 -0.10747449 0.052936163 0.0063252896
